tinyml/micro_model_int8.tflite (tflite, 12992 bytes, 5 tensors)

sequential/dense_1/MatMul i1 [6, 16] scale=0.004181916 zero_point=0
000000 56 e6 0d 37 ac 4b 70 4e 8b 4f f2 d3 1d b0 37 29
       0.35964477 -0.10872981 0.054364905 0.23000537 -0.35128093 0.3136437 0.46837458 0.32618943 -0.48928416 0.33037135 -0.058546823 -0.18818621 0.12127556 -0.33455327 0.23000537 0.17145856
000010 d9 c1 cf cf 8e 81 66 db d5 1b e6 47 49 31 3a 34
       -0.16309471 -0.2634607 -0.20491388 -0.20491388 -0.47673842 -0.5311033 0.42655542 -0.15473089 -0.17982239 0.11291173 -0.10872981 0.29691604 0.30527985 0.20491388 0.24255112 0.21745962
000020 84 dc d2 6f 6d b5 3f 8a c0 d5 55 e9 8a 2b 8d 78
       -0.51855755 -0.15054896 -0.19236813 0.46419266 0.45582885 -0.3136437 0.2634607 -0.49346608 -0.26764262 -0.17982239 0.35546285 -0.09618407 -0.49346608 0.17982239 -0.4809203 0.5018299
000030 c4 56 6f 67 11 22 8d 9b 55 06 a3 23 1c e9 1d e5
       -0.25091496 0.35964477 0.46419266 0.43073735 0.07109257 0.14218514 -0.4809203 -0.4223735 0.35546285 0.025091495 -0.3889182 0.14636706 0.117093645 -0.09618407 0.12127556 -0.11291173
000040 47 c9 f2 30 db 4c 92 40 a3 b2 3a 9c 93 e1 50 5a
       0.29691604 -0.23000537 -0.058546823 0.20073196 -0.15473089 0.31782562 -0.46001074 0.26764262 -0.3889182 -0.32618943 0.24255112 -0.41819158 -0.45582885 -0.12963939 0.33455327 0.37637243
000050 d8 52 fd 28 cd 63 9c 4b 1f 47 8d 46 79 dc 5e 12
       -0.16727664 0.3429171 -0.012545748 0.16727664 -0.21327771 0.41400966 -0.41819158 0.3136437 0.12963939 0.29691604 -0.4809203 0.29273412 0.50601184 -0.15054896 0.39310008 0.07527448

sequential/dense/MatMul i1 [16, 32] scale=0.0033062529 zero_point=0
000000 4b 60 9d 0f 14 21 b3 b4 9c 0c 4d cb 21 bd da 40
       0.24796897 0.31740028 -0.32731903 0.04959379 0.06612506 0.10910635 -0.25458148 -0.2512752 -0.3306253 0.039675035 0.25458148 -0.1752314 0.10910635 -0.22151895 -0.1256376 0.21160018
000010 40 ba 3b 13 e3 ce bc d4 c8 28 dd e8 ab d2 4f 5f
       0.21160018 -0.2314377 0.19506893 0.0628188 -0.095881335 -0.16531265 -0.2248252 -0.14547512 -0.18515016 0.13225012 -0.11571885 -0.07935007 -0.2810315 -0.15208763 0.261194 0.31409404
000020 27 fb 1f 53 00 70 54 38 e0 c3 af b3 52 55 f0 d7
       0.12894386 -0.016531264 0.10249384 0.27441898 0.0 0.37030032 0.27772525 0.18515016 -0.10580009 -0.20168142 -0.26780647 -0.25458148 0.27111274 0.2810315 -0.052900046 -0.13555637
000030 2f f9 a0 bb d7 e8 dc 05 1d 3f df 4a 73 05 e4 9a
       0.15539388 -0.02314377 -0.31740028 -0.22813144 -0.13555637 -0.07935007 -0.119025104 0.016531264 0.095881335 0.20829393 -0.10910635 0.24466272 0.38021907 0.016531264 -0.09257508 -0.3372378
000040 55 58 e9 5e c2 9c 99 0f b7 2f 4e 1e 5d 98 22 f7
       0.2810315 0.29095024 -0.076043814 0.31078777 -0.20498767 -0.3306253 -0.34054404 0.04959379 -0.24135646 0.15539388 0.25788772 0.09918758 0.30748153 -0.3438503 0.1124126 -0.029756276
000050 34 d6 10 0f 40 cb 61 a2 4e 4b 5a 31 da ed 0a c3
       0.17192516 -0.13886262 0.052900046 0.04959379 0.21160018 -0.1752314 0.32070652 -0.31078777 0.25788772 0.24796897 0.29756275 0.1620064 -0.1256376 -0.0628188 0.03306253 -0.20168142
000060 62 bd e7 03 f3 60 0f 07 20 d9 a4 b6 dc df 07 34
       0.3240128 -0.22151895 -0.082656324 0.009918759 -0.04298129 0.31740028 0.04959379 0.02314377 0.10580009 -0.12894386 -0.30417526 -0.24466272 -0.119025104 -0.10910635 0.02314377 0.17192516
000070 60 46 d0 4d 1a 32 2c 45 da e1 54 2f 90 37 41 59
       0.31740028 0.2314377 -0.15870014 0.25458148 0.08596258 0.16531265 0.14547512 0.22813144 -0.1256376 -0.10249384 0.27772525 0.15539388 -0.37030032 0.1818439 0.21490644 0.2942565
000080 9d d9 e9 db 99 57 1c b7 e6 d2 3e 36 17 17 9c 12
       -0.32731903 -0.12894386 -0.076043814 -0.12233136 -0.34054404 0.287644 0.09257508 -0.24135646 -0.08596258 -0.15208763 0.20498767 0.17853765 0.076043814 0.076043814 -0.3306253 0.059512552
000090 42 d8 63 26 35 49 de e0 3b 62 58 22 b9 2e c7 06
       0.2182127 -0.13225012 0.32731903 0.1256376 0.1752314 0.24135646 -0.1124126 -0.10580009 0.19506893 0.3240128 0.29095024 0.1124126 -0.23474395 0.15208763 -0.18845642 0.019837517
0000a0 7f 6b cc ae c2 2e c6 22 15 72 65 4f 2b 1e ba 64
       0.41989413 0.35376906 -0.17192516 -0.27111274 -0.20498767 0.15208763 -0.19176267 0.1124126 0.06943131 0.37691283 0.33393154 0.261194 0.14216888 0.09918758 -0.2314377 0.3306253
0000b0 ce 2a d4 a5 e5 3b ba 3a 18 d1 fe 2a ec b5 03 63
       -0.16531265 0.13886262 -0.14547512 -0.30086902 -0.089268826 0.19506893 -0.2314377 0.19176267 0.07935007 -0.15539388 -0.0066125058 0.13886262 -0.06612506 -0.24796897 0.009918759 0.32731903
0000c0 2a 68 fb ee 4a e6 12 07 a7 94 ec e8 e3 fe 28 9a
       0.13886262 0.3438503 -0.016531264 -0.059512552 0.24466272 -0.08596258 0.059512552 0.02314377 -0.2942565 -0.3570753 -0.06612506 -0.07935007 -0.095881335 -0.0066125058 0.13225012 -0.3372378
0000d0 aa 63 3d a2 48 d6 ea e6 cc 20 26 36 e3 cd 56 44
       -0.28433776 0.32731903 0.20168142 -0.31078777 0.23805021 -0.13886262 -0.07273756 -0.08596258 -0.17192516 0.10580009 0.1256376 0.17853765 -0.095881335 -0.1686189 0.28433776 0.2248252
0000e0 25 c5 24 c8 50 c7 71 60 e3 df 43 6e b0 05 9b cc
       0.12233136 -0.19506893 0.119025104 -0.18515016 0.26450023 -0.18845642 0.37360656 0.31740028 -0.095881335 -0.10910635 0.22151895 0.3636878 -0.26450023 0.016531264 -0.33393154 -0.17192516
0000f0 e4 2b f3 bc 03 5e 0d a3 0d 32 d1 05 3d 61 99 04
       -0.09257508 0.14216888 -0.04298129 -0.2248252 0.009918759 0.31078777 0.04298129 -0.30748153 0.04298129 0.16531265 -0.15539388 0.016531264 0.20168142 0.32070652 -0.34054404 0.0132250115

sequential/conv2d_2/Conv2D i1 [32, 3, 3, 16]
000000 5a e1 1a 53 6c cb db 42 5c 58 78 c7 fb cb e6 58
       90 -31 26 83 108 -53 -37 66 92 88 120 -57 -5 -53 -26 88
000010 1d 4d 08 01 ee 1d 05 c4 de 03 1b 3b fc 58 f6 fa
       29 77 8 1 -18 29 5 -60 -34 3 27 59 -4 88 -10 -6
000020 56 5d 1f 06 fb 06 55 43 20 15 51 2c 01 43 2a 1d
       86 93 31 6 -5 6 85 67 32 21 81 44 1 67 42 29
000030 2e d9 4e 4d 31 d3 28 ff bd 38 6b 69 40 2e 5d 76
       46 -39 78 77 49 -45 40 -1 -67 56 107 105 64 46 93 118
000040 24 fd fd 11 66 3d 5a 0f fd 5b 7c d5 09 c1 72 44
       36 -3 -3 17 102 61 90 15 -3 91 124 -43 9 -63 114 68
000050 36 3c 0e 43 e7 48 db 53 2e 12 5b e0 0b de 6e 3a
       54 60 14 67 -25 72 -37 83 46 18 91 -32 11 -34 110 58
000060 5e f8 4b f4 fe 13 15 f4 1d 41 38 08 38 f7 7f e9
       94 -8 75 -12 -2 19 21 -12 29 65 56 8 56 -9 127 -23
000070 ff 60 5c d9 21 00 dc 5a ec 4b 27 e0 1b f2 39 75
       -1 96 92 -39 33 0 -36 90 -20 75 39 -32 27 -14 57 117
000080 65 d5 6e 0c 2c 25 40 27 bb f9 15 c4 48 1a 0d 25
       101 -43 110 12 44 37 64 39 -69 -7 21 -60 72 26 13 37
000090 ea 1d c1 a0 dd 06 21 18 64 e4 02 af d9 29 d2 a4
       -22 29 -63 -96 -35 6 33 24 100 -28 2 -81 -39 41 -46 -92
0000a0 a7 06 7e 5a fb d5 c2 ff 3c e8 47 3e a1 e9 30 d9
       -89 6 126 90 -5 -43 -62 -1 60 -24 71 62 -95 -23 48 -39
0000b0 56 f2 a2 7f ca ab aa 03 c5 d6 08 71 3d 1d c3 ea
       86 -14 -94 127 -54 -85 -86 3 -59 -42 8 113 61 29 -61 -22
0000c0 51 b9 f2 c5 e3 92 7a c1 5b ed e2 41 38 bb 20 9e
       81 -71 -14 -59 -29 -110 122 -63 91 -19 -30 65 56 -69 32 -98
0000d0 b5 7a 22 09 7c 0c b6 98 2e 17 cd ad ef 6e ed 75
       -75 122 34 9 124 12 -74 -104 46 23 -51 -83 -17 110 -19 117
0000e0 68 47 50 27 3c b4 44 25 0c ae 23 fc 18 13 74 32
       104 71 80 39 60 -76 68 37 12 -82 35 -4 24 19 116 50
0000f0 5b 21 6c 66 22 4c 41 c2 43 7d 4f 7a d7 28 5b 09
       91 33 108 102 34 76 65 -62 67 125 79 122 -41 40 91 9

sequential/conv2d_1/Conv2D i1 [16, 3, 3, 8]
000000 63 76 cb 70 c5 fe eb 79 57 d8 46 d1 62 e0 ee d2
       99 118 -53 112 -59 -2 -21 121 87 -40 70 -47 98 -32 -18 -46
000010 0d 7e fc de ef ca ec 1b f2 ff 00 60 04 ec 06 72
       13 126 -4 -34 -17 -54 -20 27 -14 -1 0 96 4 -20 6 114
000020 21 72 b1 22 5a 07 7f 0f e2 1e c0 4c 4f 26 41 1b
       33 114 -79 34 90 7 127 15 -30 30 -64 76 79 38 65 27
000030 20 c3 34 32 d8 2a 75 f8 4c fa 2e b6 3a 41 dd 72
       32 -61 52 50 -40 42 117 -8 76 -6 46 -74 58 65 -35 114
000040 3b 0a e3 09 3f 78 6b 23 b7 29 18 d9 b6 08 b6 64
       59 10 -29 9 63 120 107 35 -73 41 24 -39 -74 8 -74 100
000050 12 05 1f 57 ea 15 65 30 cc c1 11 c0 6e 2b 6c 3e
       18 5 31 87 -22 21 101 48 -52 -63 17 -64 110 43 108 62
000060 48 37 57 17 dd b9 ac 78 37 40 f3 69 d9 7f ac 77
       72 55 87 23 -35 -71 -84 120 55 64 -13 105 -39 127 -84 119
000070 e2 69 27 ed ee d8 79 ee 0d 60 c1 6b 51 37 10 65
       -30 105 39 -19 -18 -40 121 -18 13 96 -63 107 81 55 16 101
000080 77 0f 77 c5 e8 ec eb 63 c3 10 ed cf 5f f0 4d 7a
       119 15 119 -59 -24 -20 -21 99 -61 16 -19 -49 95 -16 77 122
000090 59 fe 63 2e 37 47 48 01 16 07 26 b0 d1 e1 53 7d
       89 -2 99 46 55 71 72 1 22 7 38 -80 -47 -31 83 125
0000a0 de 21 b5 b5 fe 5a ec 17 28 3d a6 4d 06 10 0e c8
       -34 33 -75 -75 -2 90 -20 23 40 61 -90 77 6 16 14 -56
0000b0 cd 41 79 14 73 23 0a 67 aa 73 53 c4 e4 30 dc 4f
       -51 65 121 20 115 35 10 103 -86 115 83 -60 -28 48 -36 79
0000c0 0b e2 b5 d7 dc 2e 4d dd 6d d2 cb b2 7f 62 c9 f0
       11 -30 -75 -41 -36 46 77 -35 109 -46 -53 -78 127 98 -55 -16
0000d0 46 21 5d 44 1d f3 fd 1f d2 4d 41 67 e7 63 e5 c0
       70 33 93 68 29 -13 -3 31 -46 77 65 103 -25 99 -27 -64
0000e0 a9 0c 29 e4 66 dc 42 6e 4c 6d 78 0c 21 d5 07 e8
       -87 12 41 -28 102 -36 66 110 76 109 120 12 33 -43 7 -24
0000f0 ba 2f 9c 3f 4d 7a 6d 1c a1 7f 76 9e 71 cb 0b a6
       -70 47 -100 63 77 122 109 28 -95 127 118 -98 113 -53 11 -90

sequential/conv2d/Conv2D i1 [8, 3, 3, 3]
000000 03 81 1e 70 8e aa ba 2a 5f 76 e1 a8 28 0b 87 34
       3 -127 30 112 -114 -86 -70 42 95 118 -31 -88 40 11 -121 52
000010 99 0f 11 5e 0a a9 46 86 1b c1 3f d4 31 c5 19 a7
       -103 15 17 94 10 -87 70 -122 27 -63 63 -44 49 -59 25 -89
000020 7f cb 6d e0 8c 4a 7a d9 18 52 76 c9 7a ac 2a 57
       127 -53 109 -32 -116 74 122 -39 24 82 118 -55 122 -84 42 87
000030 ce 91 c6 4e 86 c4 b1 cc ff 1e 81 d6 17 3a 55 b3
       -50 -111 -58 78 -122 -60 -79 -52 -1 30 -127 -42 23 58 85 -77
000040 1e 3e 42 c6 fe 21 57 cd 55 9b c3 98 77 26 d4 98
       30 62 66 -58 -2 33 87 -51 85 -101 -61 -104 119 38 -44 -104
000050 4c 91 53 94 93 ec ea 09 6d 23 e0 60 47 d9 d8 98
       76 -111 83 -108 -109 -20 -22 9 109 35 -32 96 71 -39 -40 -104
000060 81 2d 5a 7d 76 e5 29 84 69 c0 b9 57 7e 82 3e 3e
       -127 45 90 125 118 -27 41 -124 105 -64 -71 87 126 -126 62 62
000070 c1 f5 1b 1f 4e 21 67 da b6 66 c1 d2 78 9f 4c 8d
       -63 -11 27 31 78 33 103 -38 -74 102 -63 -46 120 -97 76 -115
000080 26 c8 8b e3 9f 4a 81 1b c8 e2 2d e5 e1 82 e4 4c
       38 -56 -117 -29 -97 74 -127 27 -56 -30 45 -27 -31 -126 -28 76
000090 e9 75 a3 18 e4 06 b7 34 82 51 7f 42 05 d1 13 b8
       -23 117 -93 24 -28 6 -73 52 -126 81 127 66 5 -47 19 -72
0000a0 6b b6 c0 ec c9 56 4f 3a c2 bf c2 9d b4 1a 26 d5
       107 -74 -64 -20 -55 86 79 58 -62 -65 -62 -99 -76 26 38 -43
0000b0 26 66 33 81 45 23 06 43 56 97 27 e8 aa 3d 43 b5
       38 102 51 -127 69 35 6 67 86 -105 39 -24 -86 61 67 -75
0000c0 df 21 40 6a 8f d8 4e 85 d7 34 1a 58 e1 b2 b6 77
       -33 33 64 106 -113 -40 78 -123 -41 52 26 88 -31 -78 -74 119
0000d0 59 af d5 81 55 3d 0b b8
       89 -81 -43 -127 85 61 11 -72
